Forward_Inverse Kinematics/iknet.pth (torch, 840210 bytes, 12 tensors)

layers.0.weight f4 [400, 7]
0.39029148 0.035057787 0.45743465 -0.21376653 0.11402565 0.07416072 -0.011603952 -0.2714828
-0.23276691 -0.66443956 -0.092188634 -0.13927747 0.041630432 0.1606129 -0.060894262 -0.19852258
-0.5217977 0.2988218 -0.0798244 -0.0063888486 0.03980856 -0.23881377 -0.24837707 0.10573686
0.3939673 -0.38730916 0.18768252 -0.09473947 -0.27513012 0.25386938 -0.16859895 -0.04957351
-0.29029292 -0.3067645 -0.32952946 -0.60510015 -0.029194197 -0.023002546 0.15444906 0.13759325
-0.03709732 -0.039722655 -0.33064446 -0.1956544 0.35177198 -0.07949873 0.16464452 0.07364612
0.31409797 -0.21139069 -0.1613834 0.35917094 0.15750392 0.33991438 -0.29817227 -0.64524996
0.14503345 -0.16499507 -0.2945811 -0.21848597 -0.31952116 -0.03985402 -0.26714402 -0.08746789
-0.47994322 0.25334427 -0.098658144 0.24182108 0.21925214 0.35033023 0.22266763 -0.2056215
0.11919604 0.2669743 0.23642258 0.11136897 -0.113593586 -0.14205793 0.35043284 0.16562746
0.48871547 0.18980473 -0.13642152 0.13343327 -0.14762801 0.53354955 -0.6455892 0.08376406
-0.20905314 -0.18928175 0.2309819 -0.45258957 -0.5224844 0.2435298 0.1179754 0.39157993
0.022168951 -0.19134487 0.12524508 -0.10909841 -0.14439993 -0.3012612 -0.013705452 -0.22848393
0.04368309 -0.4895079 -0.12542887 0.052675243 -0.32531977 0.11116328 0.23003764 0.12960073
-0.06362129 0.543847 -0.19679493 0.2083105 -0.021512479 -0.2655479 -0.13444887 -0.25810185
-0.29997903 -0.3086288 -0.094325766 -0.08585503 0.16323508 -0.04915625 0.24312288 0.31112623
-0.5449109 0.16569632 -0.0936502 0.023423335 -0.14661624 0.37868807 -0.65688384 0.38117898
-0.17593904 0.16532297 0.11706107 -0.36406043 -0.31481403 -0.124338984 -0.4710673 -0.227355
0.07544964 0.081951864 0.10188325 -0.27152157 -0.6108524 0.11547844 0.054794505 0.027474442
0.25145084 0.10756632 0.49280512 -0.035392758 -0.38254943 -0.22019699 -0.22370765 -0.25100976
-0.33064893 -0.28554654 -0.060806844 -0.046889246 0.18384111 0.1694963 0.19652359 0.10342146
-0.18330917 0.26634648 0.010053098 -0.07408503 -0.0174658 -0.15110198 -0.19170637 -0.20982654
-0.15348068 0.33264485 -0.6340373 0.34888092 0.3032263 0.03175597 -0.7748557 0.59276897
0.48826948 0.11929291 -0.010127829 -0.1097629 -0.050832067 -0.27336732 -0.28469095 0.15918413
0.10962317 -0.18578748 -0.034022264 -0.16409959 -0.119247004 0.5994331 -0.16070306 -0.27142227
0.2373768 0.42452872 0.20546833 -0.6140227 0.009691425 0.36421672 -0.9188417 0.3827563
-0.46432108 -0.2674522 -0.22081588 0.23322286 0.27944225 0.36879724 -0.1811203 -0.020068774
-0.3311209 0.034718513 0.1135538 0.044226903 -0.210047 -0.40214664 0.25798994 -0.36237493
0.39502853 0.52920115 0.47706115 -0.22970673 0.15906172 -0.11777648 -0.021070102 0.047328204
0.43320853 0.2045139 -0.36883795 0.09780198 0.33146968 0.1760628 -0.2407176 -0.4528082
-0.03394199 0.22046971 -0.24059866 0.19890167 -0.22908206 -0.3590942 -0.17946148 -0.545528
-0.43665576 0.35080037 -0.17907913 -0.36092895 -0.17095506 -0.24549098 -0.33913907 -0.24642381
00000000: 49d4 c73e c198 0f3d e034 ea3e 9de5 5abe
00000010: 4886 e93d 93e1 973d 811e 3ebc cbff 8abe
00000020: 735a 6ebe b618 2abf 65cd bcbd c19e 0ebe
00000030: ac84 2a3d b577 243e 436c 79bd 8149 4bbe
00000040: 8994 05bf 2cff 983e fa7a a3bd 8c59 d1bb
00000050: 4d0e 233d 998b 74be 8f56 7ebe 918c d83d
00000060: 15b6 c93e 634d c6be d92f 403e c406 c2bd
00000070: dbdd 8cbe 2bfb 813e 34a5 2cbe 980d 4bbd
00000080: 46a1 94be 3d10 9dbe 16b8 a8be d8e7 1abf
00000090: ab28 efbc d66f bcbc e527 1e3e 3fe5 0c3e
000000a0: 5cf3 17bd 39b4 22bd 3b4a a9be a159 48be
000000b0: 751b b43e 3bd0 a2bd 9398 283e c7d3 963d
000000c0: 73d1 a03e cd76 58be b141 25be 41e5 b73e
000000d0: b548 213e 4209 ae3e 09aa 98be 1a2f 25bf
000000e0: a683 143e 78f4 28be 55d3 96be c9ba 5fbe
000000f0: 4798 a3be f83d 23bd 1ac7 88be 5d22 b3bd
00000100: 1ebb f5be 57b6 813e 480d cabd f29f 773e
00000110: a283 603e 7c5e b33e fc02 643e 718e 52be
00000120: 0e1d f43d dbb0 883e c318 723e 6a15 e43d
00000130: c1a3 e8bd a277 11be ef6b b33e 3f9a 293e
00000140: ea38 fa3e 2c5c 423e 15b2 0bbe bba2 083e
00000150: cc2b 17be b496 083f 5545 25bf 7e8c ab3d
00000160: 0712 56be 13d3 41be 8586 6c3e d2b9 e7be
00000170: 8ac1 05bf e05f 793e 169d f13d 2a7d c83e
00000180: a99b b53c e9ef 43be 3f40 003e fd6e dfbd
00000190: 93dd 13be e83e 9abe d58c 60bc b1f7 69be
000001a0: 0aed 323d c8a0 fabe 6d70 00be ffc1 573d
000001b0: 5090 a6be 93a9 e33d fd8e 6b3e 0eb6 043e
000001c0: e14b 82bd 8f39 0b3f 9c84 49be 594f 553e
000001d0: f03a b0bc e5f5 87be f7ac 09be ed25 84be
000001e0: da96 99be 9804 9ebe de2d c1bd c3d4 afbd
000001f0: 1927 273e 1058 49bd 34f5 783e f04b 9f3e
00000200: 487f 0bbf 4cac 293e adcb bfbd 4be2 bf3c
00000210: 9122 16be 67e3 c13e 8a29 28bf e429 c33e
00000220: 5d29 34be 6d4a 293e b7bd ef3d 2166 babe
00000230: 4e2f a1be 70a5 febd bc2f f1be c0cf 68be
00000240: 5785 9a3d 61d6 a73d 2aa8 d03d e004 8bbe
00000250: d360 1cbf f67f ec3d 3470 603d 1512 e13c
00000260: 2abe 803e bb4b dc3d f450 fc3e fff7 10bd
00000270: 85dd c3be 527b 61be 9e13 65be 5a84 80be
00000280: d14a a9be 2833 92be 9910 79bd f00e 40bd
00000290: d840 3c3e 7090 2d3e 7b3d 493e a1ce d33d
000002a0: 66b5 3bbe 915e 883e c0b5 243c e4b9 97bd
000002b0: 7014 8fbc 7aba 1abe ad4e 44be c5dc 56be
000002c0: 0a2a 1dbe 6d50 aa3e 4550 22bf 85a0 b23e
000002d0: 7a40 9b3e 8c12 023d f15c 46bf b5bf 173f
000002e0: 75fe f93e d74f f43d 32ef 25bc 5fcb e0bd
000002f0: 4935 50bd cdf6 8bbe 03c3 91be 2a01 233e
00000300: 1d82 e03d 133f 3ebe ee5a 0bbd b909 28be
00000310: c637 f4bd 7374 193f 588f 24be dcf7 8abe
00000320: e712 733e d45b d93e 4a66 523e 9730 1dbf
00000330: c8c8 1e3c 9d7a ba3e 3639 6bbf a2f8 c33e
00000340: 7ebb edbe 7fef 88be 8f1d 62be f9d1 6e3e
00000350: 0e13 8f3e fed2 bc3e 9a77 39be 4567 a4bc
00000360: ae88 a9be 0035 0e3d e58e e83d 4527 353d
00000370: 9016 57be 2ae6 cdbe 4217 843e 3589 b9be
00000380: 2e41 ca3e ba79 073f 5c41 f43e 3e38 6bbe
00000390: 13e1 223e cc34 f1bd 359b acbc 38db 413d
000003a0: 82cd dd3e 186c 513e 54d8 bcbe 684c c83d
000003b0: 65b6 a93e cf49 343e ad7e 76be 7ad6 e7be
000003c0: c206 0bbd d0c2 613e 7f5f 76be e1ac 4b3e
000003d0: 7d94 6abe 32db b7be c0c4 37be b9a7 0bbf
000003e0: 5891 dfbe 1b9c b33e 8560 37be aecb b8be
000003f0: d80e 2fbe fd61 7bbe a3a3 adbe 8656 7cbe

layers.0.bias f4 [400]
-0.12375728 0.09498095 0.14420158 -0.28049827 -0.3717742 0.16809782 -0.26544818 -0.09174098
-0.3117419 -0.32821408 0.10767479 -0.10474026 0.004105517 -0.2365011 -0.30347046 -0.3304685
0.080202006 0.20481938 0.20599978 0.18078369 0.12612832 -0.084303625 0.23801318 -0.30540228
-0.3441879 0.06449325 -0.06614974 -0.21976791 -0.26169208 -0.23555039 -0.06756229 -0.26416412
-0.16337065 -0.25202748 -0.030958671 0.20174676 -0.028125757 0.10837097 0.22004008 -0.1662458
-0.01315664 -0.049379233 0.10718123 -0.111942135 -0.2347516 -0.36288306 0.084311895 0.08559557
-0.110357046 -0.06421283 -0.031353105 0.23926428 0.1918059 -0.30330813 0.110827595 -0.1395104
-0.16826464 -0.16564527 -0.012010592 -0.27104282 -0.24246256 -0.0009726613 -0.22867057 -0.39967903
-0.1008236 0.03813936 0.1563175 -0.16148792 0.28188893 0.10392428 -0.076678015 -0.27847484
-0.14749026 -0.28126884 -0.1780477 -0.049666945 -0.13424806 0.28925493 -0.008483675 -0.042160884
-0.32378656 -0.03152161 -0.06275075 -0.058412082 -0.09411911 -0.18162446 -0.36331868 0.19188115
-0.040121898 -0.2953625 -0.1077963 -0.24329911 0.032867603 0.043796085 -0.17792103 -0.10200968
-0.23304601 0.17392392 0.17908496 -0.09822847 -0.31494257 -0.18740073 0.14219444 -0.20057029
0.057416517 -0.025455847 0.13663282 -0.37470108 -0.07487463 0.13882649 -0.18618882 0.102422215
0.096435815 0.15876733 0.06230991 0.23015416 0.021306468 0.12522702 -0.3131708 -0.3555793
0.24097212 0.1166594 0.15160465 -0.2701785 -0.15441597 -0.29567137 0.033036713 -0.047547955
0.2524322 -0.07612493 -0.14962688 0.10881065 0.0004356004 -0.36625996 -0.30734956 -0.031799775
0.09320058 -0.21559174 -0.3015209 0.27893057 0.26632854 -0.18342918 0.14847513 -0.19298808
0.11876823 -0.4107532 0.22454019 0.06269615 0.15862426 -0.14475198 -0.064555466 0.09583215
-0.16391803 0.16196519 0.011973816 0.15424213 0.12853825 0.218644 0.27447662 -0.22271018
-0.17049997 -0.19101125 -0.1597755 -0.22057375 -0.19584823 -0.22965933 -0.28721654 -0.27311748
0.23952934 -0.007268674 -0.06955107 -0.116730526 0.1664801 0.13062079 -0.07401269 -0.11912806
0.20929174 -0.25515464 0.10416484 0.03143851 0.10668018 -0.18140341 -0.12280899 -0.09199254
-0.2770918 0.15950258 0.050656278 -0.19046266 -0.3001416 0.2578936 -0.3302099 0.12155032
-0.30936712 -0.083313555 0.103495516 -0.27863914 -0.36780044 -0.31738034 -0.09752116 -0.25032708
-0.14584477 0.08696173 0.05494394 0.066758916 -0.3098171 -0.20312586 0.15281987 -0.36510992
-0.28068185 0.020944262 -0.09862095 -0.08285596 0.06439457 -0.3750196 0.22912483 0.08920884
0.07750341 -0.16669205 -0.18124297 -0.3798027 -0.07955296 0.056321625 0.215425 0.100418635
-0.120004855 -0.12323528 0.095764875 0.06295276 0.042235363 -0.36092797 -0.16155489 0.25215676
-0.075759046 -0.074708395 -0.21801272 -0.055001732 -0.38071522 -0.3269933 0.11929224 0.06636327
0.21362242 -0.29545772 -0.05177806 -0.11851781 0.03415812 -0.1000507 0.18588169 0.053732663
-0.38106522 -0.329037 0.18646337 0.066363 0.17676088 0.24954428 -0.061215825 -0.35659024
00000000: 7574 fdbd 5f85 c23d 94a9 133e 789d 8fbe
00000010: 3059 bebe d621 2c3e d3e8 87be b2e2 bbbd
00000020: a29c 9fbe ad0b a8be 9a84 dc3d 1082 d6bd
00000030: 9387 863b 582d 72be 7b60 9bbe 2b33 a9be
00000040: f340 a43d 2cbc 513e 9bf1 523e 5c1f 393e
00000050: c827 013e 61a7 acbd bab9 733e b05d 9cbe
00000060: 6539 b0be 0915 843d 8479 87bd d70a 61be
00000070: 81fc 85be 1f34 71be 195e 8abd 8540 87be
00000080: a34a 27be bf09 81be 0a9d fdbc b496 4e3e
00000090: fd67 e6bc 99f1 dd3d 3052 613e 573c 2abe
000000a0: f38e 57bc e141 4abd d581 db3d eb41 e5bd
000000b0: b962 70be cfcb b9be b7ab ac3d bb4c af3d
000000c0: e002 e2bd 0482 83bd 1d6c 00bd b201 753e
000000d0: c468 443e 344b 9bbe 94f9 e23d d0db 0ebe
000000e0: 914d 2cbe ea9e 29be 13c8 44bc 20c6 8abe
000000f0: 1b48 78be 32fa 7eba 9e28 6abe bba2 ccbe
00000100: 9b7c cebd 0438 1c3d b211 203e 175d 25be
00000110: bf53 903e 41d6 d43d 5d09 9dbd 4194 8ebe
00000120: b007 17be 7802 90be 2352 36be 916f 4bbd
00000130: 5378 09be 3919 943e 1dff 0abc e4b0 2cbd
00000140: 5ac7 a5be ce1c 01bd 7783 80bd 8241 6fbd
00000150: 85c1 c0bd c3fb 39be e804 babe 7e7c 443e
00000160: dc56 24bd c139 97be 4ec4 dcbd 6723 79be
00000170: 2ea0 063d 8663 333d ee30 36be 73ea d0bd
00000180: 9da3 6ebe 1d19 323e 0c62 373e 022c c9bd
00000190: 2740 a1be fae5 3fbe 6b9b 113e 4c62 4dbe
000001a0: 952d 6b3d c888 d0bc 79e9 0b3e d2d8 bfbe
000001b0: df57 99bd 8828 0e3e 48a8 3ebe bdc2 d13d
000001c0: 2480 c53d e793 223e ad38 7f3d 88ad 6b3e
000001d0: e78a ae3c 833b 003e ec57 a0be 7d0e b6be
000001e0: 65c1 763e 20eb ee3d 403e 1b3e d654 8abe
000001f0: 381f 1ebe 3d62 97be 8151 073d a5c1 42bd
00000200: cb3e 813e 63e7 9bbd ca37 19be 1ed8 de3d
00000210: 4c61 e439 6d86 bbbe ec5c 9dbe 7b40 02bd
00000220: f2df be3d 15c4 5cbe f360 9abe fdcf 8e3e
00000230: 375c 883e dcd4 3bbe dd09 183e ab9e 45be
00000240: c23c f33d 3e4e d2be dded 653e d766 803d
00000250: 666e 223e dd39 14be a835 84bd a543 c43d
00000260: 21da 27be 34da 253e d32d 443c a6f1 1d3e
00000270: 889f 033e 36e4 5f3e 3388 8c3e 230e 64be
00000280: 8b97 2ebe 7498 43be 309c 23be 16de 61be
00000290: 708c 48be d12b 6bbe 0c0e 93be 0ed6 8bbe
000002a0: 2e47 753e 0f2e eebb cb70 8ebd 6a10 efbd
000002b0: c279 2a3e 75c1 053e f793 97bd 6af9 f3bd
000002c0: 9350 563e a1a3 82be 6054 d53d abc5 003d
000002d0: 237b da3d d1c1 39be 4883 fbbd 9666 bcbd
000002e0: fade 8dbe a554 233e f57c 4f3d a508 43be
000002f0: 29ac 99be a10a 843e 4611 a9be 60ef f83d
00000300: 5e65 9ebe 4ca0 aabd 75f5 d33d caa9 8ebe
00000310: 5750 bcbe ad7f a2be 2db9 c7bd df2a 80be
00000320: 5558 15be fe18 b23d e60c 613d e6b8 883d
00000330: 59a0 9ebe 3a00 50be d07c 1c3e b0ef babe
00000340: 88b5 8fbe 4d93 ab3c c8f9 c9bd 63b0 a9bd
00000350: 4de1 833d 9202 c0be b39f 6a3e 20b3 b63d
00000360: 1cba 9e3d 52b1 2abe c297 39be 8075 c2be
00000370: aaec a2bd 81b1 663d 5f98 5c3e 49a8 cd3d
00000380: 1bc5 f5bd c762 fcbd 6020 c43d 60ed 803d
00000390: fdfe 2c3d 8dcb b8be a56e 25be b11a 813e
000003a0: 8f27 9bbd b700 99bd ba3e 5fbe 7f49 61bd
000003b0: 1bed c2be aa6b a7be 7d4f f43d 77e9 873d
000003c0: d6bf 5a3e 3c46 97be 3b15 54bd 77b9 f2bd
000003d0: 63e9 0b3d 62e7 ccbd c557 3e3e c816 5c3d
000003e0: fb1a c3be 8a77 a8be 41f0 3e3e 53e9 873d
000003f0: ce00 353e 8988 7f3e 72bd 7abd ff92 b6be

layers.3.weight f4 [300, 400]
0.0071107806 -0.098162755 -0.06705638 -0.06859248 0.021727692 -0.07896618 -0.037232175 -0.042869963
0.011941999 0.03251609 -0.0808715 -0.026860833 -0.016230874 -0.009074124 -0.0003882998 -0.04017316
-0.043642007 -0.021214219 -0.025214175 0.012570808 0.0056622545 -0.076091126 -0.04434066 -0.011140284
0.007847678 0.010183128 -0.01762026 0.065661855 -0.018115727 -0.08105499 -0.08190203 -0.052079767
-0.03980566 -0.030265495 -0.08588924 -0.049504425 -0.018674862 -0.023471108 -0.056514323 -0.03303673
0.004778086 0.005483165 -0.075253695 -0.036217403 -0.039280117 -0.09618338 -0.07130449 0.004692496
-0.03162803 -0.07003341 -0.04006877 -0.026744073 0.009566769 0.014393666 -0.015834605 -0.041623935
-0.06422579 -0.0858403 -0.09063986 -0.037266295 -0.0737151 -0.013507451 -0.085600644 -0.034728743
-0.09772241 0.03650412 -0.038721114 -0.056426723 -0.05239748 -0.028588152 -0.007066553 -0.070005946
-0.013850108 -0.06756255 0.017181795 -0.07547988 -0.0900148 -0.05240346 0.010036707 -0.036406986
-0.010531556 0.0052433815 0.005879984 -0.09773082 -0.07870312 -0.030493643 0.033625674 -0.08315615
-0.063942246 0.012748952 -0.08060651 -0.0873962 -0.08058259 -0.10405553 -0.056456465 -0.05323557
-0.04567299 -0.09640869 -0.070025526 -0.004649923 0.0071281865 -0.10706683 -0.034611393 -0.034366746
-0.0031255106 -0.0181162 -0.04184524 -0.008860111 -0.062466867 0.01755436 -0.06555792 -0.010781616
-0.04621022 0.008531634 -0.116624005 -0.069464594 -0.016229559 -0.04906547 0.00702719 -0.09992364
-0.044324655 -0.09693291 -0.03205892 -0.038593028 -0.072618864 -0.0012044385 -0.039141856 -0.022656664
0.021384496 -0.08250293 -0.03447613 -0.001979843 -0.015437005 -0.026926517 0.104302146 -0.07049529
-0.05013648 -0.08194601 -0.06519512 -0.056280136 -0.0763981 -0.0315934 -0.016539225 -0.021779183
0.03982577 -0.045270383 -0.040332846 -0.03183421 -0.05697899 0.002286581 -0.08168822 -0.08450692
-0.08002965 -0.012252446 -0.06791484 0.022613099 -0.08748203 0.014262313 0.007871369 -0.11257618
-0.11785882 0.04966773 0.013251929 -0.009779537 -0.03554545 -0.019087503 -0.022287041 -0.05326632
-0.057335205 -0.026188916 -0.10455323 -0.033531412 -0.02007757 -0.045559946 -0.06668846 0.029838834
-0.095506065 0.00537963 -0.06809171 -0.022527387 -0.07789175 -0.09525765 -0.05881339 0.0017598877
-0.073385134 -0.04515375 0.00975029 -0.04116721 -0.037636355 -0.04621814 -0.06073417 -0.049580984
-0.027401058 -0.015459955 0.017569523 -0.033141024 0.067670204 -0.04943148 0.00747909 0.02688119
-0.06424991 -0.062352628 -0.010603266 -0.029256107 -0.05975306 -0.0059970333 -0.09157285 0.0031425357
-0.0200902 0.053384125 -0.106738515 -0.07318878 -0.063610345 -0.0151162995 -0.0035044209 -0.048454467
0.015333091 -0.0721812 -0.022731913 -0.012771241 0.020265749 -0.090006866 -0.030083975 -0.034285016
0.03272724 -0.053541686 -0.0936922 -0.04055793 -0.0093517015 0.011754401 -0.021863915 -0.02997296
-0.003893309 -0.030282773 -0.091222 -0.0771243 0.018394694 -0.004080247 -0.017174602 -0.033410724
-0.05157409 -0.012477808 -0.02890789 -0.024380501 -0.0039517093 -0.0045544095 0.01828653 -0.07712192
-0.055661142 -0.034563474 -0.081036404 -0.060939875 -0.06710977 -0.046111062 -0.06322383 -0.00094545755
00000000: 8d01 e93b 8e09 c9bd db54 89bd 377a 8cbd
00000010: 46fe b13c 05b9 a1bd c480 18bd 6a98 2fbd
00000020: 60a8 433c 972f 053d f59f a5bd 400b dcbc
00000030: 9cf6 84bc a2ab 14bc b894 cbb9 9d8c 24bd
00000040: f6c1 32bd 71c9 adbc f58d cebc caf5 4d3c
00000050: 6f8a b93b aad5 9bbd 8d9e 35bd bd85 36bc
00000060: 8c93 003c 22d7 263c 5d58 90bc b979 863d
00000070: 6f67 94bc 2900 a6bd 40bc a7bd 9851 55bd
00000080: 420b 23bd 58ef f7bc b3e6 afbd 27c5 4abd
00000090: 06fc 98bc 7b46 c0bc 907b 67bd 8651 07bd
000000a0: 7e91 9c3b 1fac b33b 9c1e 9abd b358 14bd
000000b0: 30e4 20bd cbfb c4bd 1708 92bd 82c3 993b
000000c0: 658c 01bd ad6d 8fbd 271f 24bd 6316 dbbc
000000d0: f0bd 1c3c 69d3 6b3c 93b7 81bc dc7d 2abd
000000e0: d088 83bd 0acd afbd 64a1 b9bd 8ba4 18bd
000000f0: f1f7 96bd 5b4e 5dbc 644f afbd ba3f 0ebd
00000100: b022 c8bd 5885 153d 089a 1ebd b51f 67bd
00000110: bd9e 56bd b331 eabc 8b8e e7bb 475f 8fbd
00000120: 90eb 62bc 3c5e 8abd d6c0 8c3c 3295 9abd
00000130: ae59 b8bd 03a5 56bd 0071 243c 7e1f 15bd
00000140: 8c8c 2cbc acd0 ab3b e1ac c03b 1927 c8bd
00000150: 1a2f a1bd cecd f9bc 13bb 093d c64d aabd
00000160: 27f4 82bd fbe0 503c 0715 a5bd c7fc b2bd
00000170: 7c08 a5bd 111b d5bd e53e 67bd 8b0d 5abd
00000180: 9a13 3bbd eb71 c5bd 8b69 8fbd 625e 98bb
00000190: 9093 e93b db45 dbbd adc4 0dbd 25c4 0cbd
000001a0: 5ed5 4cbb 6d68 94bc ea65 2bbd 002a 11bc
000001b0: 42dd 7fbd 29ce 8f3c 3b43 86bd 60a5 30bc
000001c0: ed46 3dbd 44c8 0b3c 91d8 eebd 7443 8ebd
000001d0: daf3 84bc e0f8 48bd 5844 e63b c4a4 ccbd
000001e0: c58d 35bd c384 c6bd 3750 03bd b913 1ebd
000001f0: 33b9 94bd 40de 9dba 3653 20bd 789a b9bc
00000200: 8a2e af3c 4cf7 a8bd d836 0dbd 41c0 01bb
00000210: 7eeb 7cbc 0095 dcbc 5d9c d53d d65f 90bd
00000220: e95b 4dbd 4fd3 a7bd 0585 85bd 0086 66bd
00000230: 9b76 9cbd 1568 01bd 457d 87bc 426a b2bc
00000240: 5920 233d 706d 39bd 0e34 25bd 9764 02bd
00000250: cd62 69bd 77da 153b 274c a7bd f711 adbd
00000260: 96e6 a3bd 7cbe 48bc f016 8bbd 1b3f b93c
00000270: c729 b3bd 7aac 693c eaf6 003c 578e e6bd
00000280: f75f f1bd 6470 4b3d 9e1e 593c 5a3a 20bc
00000290: 1b98 11bd 655d 9cbc 5093 b6bc c92d 5abd
000002a0: 52d8 6abd 238a d6bc 0120 d6bd 3c58 09bd
000002b0: b779 a4bc 119d 3abd f693 88bd 9270 f43c
000002c0: af98 c3bd 9b47 b03b ab73 8bbd 5b8b b8bc
000002d0: b685 9fbd 7116 c3bd 4fe6 70bd 08ac e63a
000002e0: f24a 96bd 23f3 38bd aebf 1f3c f39e 28bd
000002f0: 9428 1abd 3b4f 3dbd 65c4 78bd 6e15 4bbd
00000300: 2f78 e0bc c04b 7dbc f6ed 8f3c e2be 07bd
00000310: ad96 8a3d aa78 4abd 2713 f53b f135 dc3c
00000320: 7595 83bd 7865 7fbd 52b9 2dbc 81aa efbc
00000330: a0bf 74bd c382 c4bb 8c8a bbbd 00f3 4d3b
00000340: 3494 a4bc 50a9 5a3d b999 dabd 00e4 95bd
00000350: 2446 82bd 5baa 77bc 6daa 65bb 3178 46bd
00000360: a537 7b3c bdd3 93bd 4738 babc 783e 51bc
00000370: 5b04 a63c 8555 b8bd ab72 f6bc 726e 0cbd
00000380: 000d 063d 874e 5bbd b2e1 bfbd 1220 26bd
00000390: e137 19bc 8895 403c f41b b3bc da89 f5bc
000003a0: e326 7fbb 9413 f8bc 9ad2 babd 58f3 9dbd
000003b0: 78b0 963c 98b3 85bb c0b1 8cbc afd9 08bd
000003c0: 5a3f 53bd b86f 4cbc 3dd0 ecbc 9eb9 c7bc
000003d0: 577d 81bb 283d 95bb a2cd 953c 19f2 9dbd
000003e0: f0fc 63bd 6e92 0dbd 6af6 a5bd 179c 79bd
000003f0: d970 89bd f4de 3cbd 7f7b 81bd 95d8 77ba

layers.3.bias f4 [300]
-0.06317323 -0.026331333 -0.0940435 -0.05084075 -0.06584612 -0.0143645285 -0.045944568 0.033991504
-0.0860052 -0.02381458 -0.08655585 -0.061088026 -0.09375994 0.029577931 -0.02337753 -0.09152107
-0.02951197 -0.09579598 -0.100198396 -0.059053656 -0.09868516 -0.054376237 -0.039406836 -0.0006700986
0.0018876441 -0.0713196 -0.04323986 -0.05806382 -0.014116179 -0.06768569 0.020115864 0.033548478
-0.0061943824 -0.06663456 -0.08814291 -0.04453685 -0.052596655 0.027294133 -0.05652273 0.011169256
0.00718878 -0.10403272 0.012864172 -0.013633979 -0.10402758 -0.08558845 -0.0037357863 -0.13222396
-0.10424691 0.010308801 -0.026792837 -0.06935442 -0.07817779 0.05620413 -0.004753122 -0.08767814
-0.043840777 -0.02522978 -0.051011927 0.0044070925 -0.020158427 -0.041264128 0.058021136 -0.014274163
-0.063715756 -0.03171404 -0.018178638 -0.10666078 -0.06269883 -0.03316611 -0.021119619 -0.02094567
-0.045852803 -0.10859166 -0.055223264 -0.0249164 0.0370854 -0.045640547 -0.018242348 -0.06860652
-0.050084118 0.015022281 -0.08001885 0.03670073 -0.03340843 0.023023993 -0.031385053 -0.09009142
-0.027298883 -0.04880266 -0.039938714 -0.05287467 -0.09378755 -0.10310929 0.009379323 0.07401071
0.042263094 -0.010790848 -0.07749368 -0.09274944 -0.022058748 -0.08115333 -0.023335991 0.014716594
-0.015009807 -0.029880742 -0.03784744 -0.07092669 -0.028680995 0.00522778 -0.06529437 -0.086883776
-0.04745379 0.016938234 -0.023581268 0.021195156 -0.045495566 -0.0857756 0.013542716 -0.031761244
-0.07135617 0.086027466 -0.078135684 0.062792316 0.050679903 -0.07902916 -0.015747506 -0.045777872
-0.050278947 -0.04094653 0.11766647 0.009711786 -0.11268194 -0.015473861 -0.07304221 -0.09172469
-0.052746013 0.010957336 -0.010801204 -0.08050958 0.0048803166 0.06820566 0.042600945 0.020967275
-0.09677116 -0.042505488 -0.030580042 -0.01098355 0.021816477 0.024300495 0.013214346 -0.055336263
0.065417066 -0.024121102 -0.07302546 -0.06412364 -0.030937526 -0.011629887 -0.027422508 -0.09024787
-0.054168686 -0.104407944 -0.039074834 -0.07986672 -0.077808425 -0.03779438 -0.09423644 -0.04426645
-0.06224976 -0.0170564 -0.10082164 -0.043732427 -0.008794508 -0.07467671 -0.06309387 -0.08398291
-0.04639307 -0.06350875 -0.05788115 0.005019216 -0.09133283 -0.057433125 -0.054040633 -0.05166093
0.004737333 0.016954709 -0.009377793 -0.02714106 -0.048806787 -0.012304022 -0.06449686 -0.011833734
-0.021765105 -0.046342794 -0.08256088 -0.042521924 -0.022976916 -0.077619106 0.010424928 -0.096992254
-0.03573432 -0.028675813 -0.063088395 0.0002020108 0.007968109 -0.037037067 0.04631361 -0.07413274
-0.021690268 -0.029154867 -0.055882964 -0.020529715 -0.115320094 -0.09265826 -0.11380028 0.010845384
-0.056427628 0.0044557005 -0.09596778 -0.021929728 0.03201634 -0.09275 -0.08664108 -0.049025223
-0.08977288 -0.069225825 -0.08514216 -0.06565469 0.012409946 0.11796252 -0.061086643 -0.06119844
0.039872527 -0.08953609 -0.0054935524 -0.10363006 0.03681222 -0.0356996 -0.017416695 0.080710985
-0.040425133 -0.025608342 0.018205907 -0.050607156 -0.058805924 -0.0018802988 -0.032104768 -0.13216425
-0.10428679 -0.056989554 -0.07411579 -0.10222789 -0.045345165 -0.03394594 -0.0921306 -0.06344676
00000000: f760 81bd cfb4 d7bc e199 c0bd 643e 50bd
00000010: 55da 86bd 3359 6bbc 5f30 3cbd ad3a 0b3d
00000020: 7f23 b0bd cb16 c3bc 3244 b1bd 7037 7abd
00000030: 3605 c0bd 6b4d f23c 3c82 bfbc 666f bbbd
00000040: 16c3 f1bc af30 c4bd d134 cdbd 3fe2 71bd
00000050: 721b cabd 9eb9 5ebd 1069 21bd 8ea9 2fba
00000060: d36a f73a 0310 92bd 481c 31bd 54d4 6dbd
00000070: 8c47 67bc cc9e 8abd 06ca a43c 216a 093d
00000080: 3ffa cabb b377 88bd 4584 b4bd 466c 36bd
00000090: 976f 57bd f297 df3c 6184 67bd 41ff 363c
000000a0: db8f eb3b 1b0f d5bd 40c4 523c 0d61 5fbc
000000b0: 690c d5bd ff48 afbd 18d4 74bb b865 07be
000000c0: 677f d5bd 3fe6 283c a77c dbbc b109 8ebd
000000d0: ad1b a0bd 4d36 663d 14c0 9bbb 9990 b3bd
000000e0: 6392 33bd afae cebc e2f1 50bd 5f69 903b
000000f0: 4923 a5bc 9304 29bd 92a7 6d3d 2ede 69bc
00000100: 687d 82bd 95e6 01bd 5eeb 94bc f870 dabd
00000110: 3f68 80bd 30d9 07bd 0d03 adbc 4196 abbc
00000120: 26d0 3bbd 4e65 debd ca31 62bd 7a1d ccbc
00000130: dce6 173d 95f1 3abd fa70 95bc 9381 8cbd
00000140: 0125 4dbd 0320 763c ece0 a3bd 8153 163d
00000150: 47d7 08bd d09c bc3c 9d8d 00bd da81 b8bd
00000160: e8a1 dfbc 4ce5 47bd c796 23bd 1c93 58bd
00000170: b013 c0bd f72a d3bd bbab 193c ed92 973d
00000180: 111c 2d3d 19cc 30bc 02b5 9ebd 6bf3 bdbd
00000190: 8cb4 b4bc b833 a6bd 1f2b bfbc de1d 713c
000001a0: b2eb 75bc 75c8 f4bc eb05 1bbd 0342 91bd
000001b0: 68f4 eabc cc4d ab3b 0eb9 85bd 1ff0 b1bd
000001c0: e85e 42bd 0dc2 8a3c 812d c1bc 77a1 ad3c
000001d0: 8f59 3abd 1eab afbd 45e2 5d3c 1418 02bd
000001e0: 2f23 92bd 2b2f b03d 9a05 a0bd 4299 803d
000001f0: bb95 4f3d 0ada a1bd ea00 81bc 9481 3bbd
00000200: 4cf1 4dbd 8cb7 27bd 1efb f03d 2f1e 1f3c
00000210: cac5 e6bd 1486 7dbc 2797 95bd 27da bbbd
00000220: 340c 58bd 6686 333c 88f7 30bc 35e2 a4bd
00000230: 10eb 9f3b 69af 8b3d 547e 2e3d 90c3 ab3c
00000240: f52f c6bd 3c1a 2ebd ff82 fabc 59f4 33bc
00000250: 78b8 b23c d511 c73c fc80 583c 47a8 62bd
00000260: 62f9 853d 9e99 c5bc 5f8e 95bd 4153 83bd
00000270: b270 fdbc 488b 3ebc 2ba5 e0bc e0d3 b8bd
00000280: fcdf 5dbd d5d3 d5bd ef0c 20bd 2a91 a3bd
00000290: 065a 9fbd 48ce 1abd 09ff c0bd bd50 35bd
000002a0: 9bf9 7ebd ddb9 8bbc 937b cebd c620 33bd
000002b0: d716 10bc 1af0 98bd 5c37 81bd 3bff abbd
000002c0: a906 3ebd e010 82bd c914 6dbd 3c78 a43b
000002d0: b50c bbbd ff3e 6bbd b659 5dbd 699a 53bd
000002e0: a13b 9b3b 9ae4 8a3c 51a5 19bc ee56 debc
000002f0: a0e9 47bd cf96 49bc ee16 84bd 47e2 41bc
00000300: bc4c b2bc f1d1 3dbd ae15 a9bd 782b 2ebd
00000310: 163a bcbc c4f6 9ebd 51cd 2a3c e0a3 c6bd
00000320: 265e 12bd 8ae9 eabc 7d34 81bd dcd2 5339
00000330: ac8c 023c 2eb4 17bd 57b3 3d3d e8d2 97bd
00000340: caaf b1bc 30d6 eebc 89e5 64bd ef2d a8bc
00000350: f12c ecbd 9dc3 bdbd 1f10 e9bd d6b0 313c
00000360: a820 67bd 2001 923b c18a c4bd f9a5 b3bc
00000370: 9123 033d b6f3 bdbd e170 b1bd acce 48bd
00000380: d8da b7bd 45c6 8dbd 035f aebd f775 86bd
00000390: 1653 4b3c 5596 f13d fd35 7abd 37ab 7abd
000003a0: 6051 233d b35e b7bd 4203 b4bb ff3b d4bd
000003b0: 69c8 163d be39 12bd 75ad 8ebc cd4b a53d
000003c0: d394 25bd 96c8 d1bc 8e24 953c 7349 4fbd
000003d0: 7bde 70bd 5c74 f6ba 4a80 03bd 1156 07be
000003e0: 5094 d5bd e16d 69bd 05ca 97bd db5c d1bd
000003f0: dabb 39bd e60a 0bbd f8ae bcbd 60f0 81bd

layers.6.weight f4 [200, 300]
-0.027888162 -0.018750466 -0.082403846 -0.027553087 -0.06911299 -0.066659234 -0.06984203 -0.0064805034
-0.04244568 -0.083815455 -0.061398666 -0.030106325 -0.069369525 -0.07523887 -0.077119306 -0.0134940045
-0.097734556 -0.11721581 -0.06694928 -0.013684238 -0.07162438 -0.055968333 -0.0446947 -0.072485305
-0.04020554 -0.01730444 -0.021316016 -0.0044541894 -0.09917805 -0.08894897 -0.012457398 -0.08309264
-0.052775327 -0.0054942355 -0.08064335 -0.03516403 -0.05691719 -0.07582153 -0.04023922 -0.07232334
-0.022860346 -0.021634167 -0.099139854 -0.024663849 0.0052904487 -0.015504393 -0.044450026 -0.010146128
-0.03820274 -0.044958852 -0.05805747 -0.07914126 -0.09948061 -0.080235966 -0.07307227 0.051724166
-0.007150847 -0.058650233 -0.084464766 -0.04544605 -0.082807675 -0.10163781 -0.11619232 -0.02601033
-0.079459235 -0.04992813 -0.11621541 -0.057936404 -0.107267864 -0.078414366 -0.025815804 -0.05176851
-0.048465412 -0.079589404 -0.040114254 -0.0896683 -0.06453055 -0.052919075 -0.051857516 -0.10805541
-0.010816654 -0.026957294 -0.035645436 -0.06619185 -0.005226328 -0.096822485 -0.06697591 -0.09301062
-0.003260999 -0.09786271 -0.038060542 -0.07262642 -0.08091391 -0.022846166 -0.044404585 -0.11299768
-0.04800861 -0.050098803 -0.004398155 -0.08799711 -0.098834306 -0.020636985 -0.06816067 -0.04032563
-0.059400667 -0.00810648 -0.0026982666 -0.051233903 -0.008822022 -0.01823248 -0.10499624 -0.035814237
-0.04956452 -0.10067698 -0.022693675 -0.049144655 -0.08824415 -0.018355269 -0.055164106 -0.04525021
-0.013151683 -0.06327903 -0.100527845 -0.058755558 -0.07898191 -0.056138575 0.018618368 -0.005267212
-0.07074905 -0.092322335 -0.05975783 -0.11644754 -0.023084227 -0.083462186 -0.010874104 -0.015372539
-0.113541014 -0.053448733 -0.0777979 -0.015379436 -0.11534852 -0.053679183 -0.06490624 -0.039069913
-0.017101774 -0.028689763 -0.037335895 -0.010447195 -0.09348561 -0.08450996 -0.05302858 -0.00527387
-0.040214416 -0.011405299 -0.0520895 -0.037547357 -0.08412224 -0.036328673 -0.08905768 -0.09007785
-0.11408917 -0.08109125 -0.07560609 -0.027086234 -0.0873781 -0.11517623 0.024170205 -0.028556775
-0.0874367 -0.06493247 -0.007171523 -0.0628831 -0.0917652 -0.102212004 0.044907518 -0.09897552
-0.09172917 -0.0023676876 -0.012442425 -0.017625146 -0.07408973 -0.0027373286 -0.06957204 -0.007933252
-0.04156885 -0.033950888 -0.08337959 -0.04111091 -0.016090652 -0.07760389 -0.08086203 -0.022429297
-0.04688275 -0.043753665 -0.04337906 -0.040597863 0.11016925 -0.038913067 -0.07425035 -0.005690865
-0.047407553 -0.018008146 -0.11279426 -0.0030565062 -0.08329295 -0.020191913 -0.066653654 -0.09241599
-0.014766882 -0.010590222 -0.11185014 -0.082051806 -0.096389614 -0.03813495 -0.08019262 -0.041785605
-0.034753397 -0.09156052 -0.03944221 -0.006607127 -0.10670034 -0.011231387 -0.0907516 -0.11554856
-0.02063283 -0.011250683 -0.09315648 -0.01439544 -0.09865157 -0.002748797 -0.080654144 -0.056403182
-0.045504414 -0.020730332 -0.015557387 -0.10989748 -0.053007122 -0.043704703 -0.010303995 -0.048331436
-0.029213956 0.07199573 -0.010319787 -0.10083383 -0.074327834 -0.029140204 -0.09745942 -0.028005129
-0.08222742 -0.0053687855 -0.092590526 -0.012497178 -0.034406543 -0.08444724 -0.047310777 -0.05835434
00000000: b775 e4bc 949a 99bc 59c3 a8bd 03b7 e1bc
00000010: 1c8b 8dbd a384 88bd 5709 8fbd 675a d4bb
00000020: 85db 2dbd 70a7 abbd 2b7d 7bbd 8aa1 f6bc
00000030: 9c11 8ebd d616 9abd baf0 9dbd f515 5dbc
00000040: 0e29 c8bd d80e f0bd b41c 89bd db33 60bc
00000050: ceaf 92bd 0d3f 65bd ca11 37bd 2d73 94bd
00000060: 90ae 24bd 0ac2 8dbc ed9e aebc 73f4 91bb
00000070: dd1d cbbd e12a b6bd 1d1a 4cbc 792c aabd
00000080: f12a 58bd fd08 b4bb 5728 a5bd 2808 10bd
00000090: 0022 69bd 5148 9bbd e1d1 24bd 421e 94bd
000000a0: 9f45 bbbc 233a b1bc d609 cbbd d70b cabc
000000b0: 805b ad3b 2306 7ebc 3b11 36bd f23b 26bc
000000c0: 7a7a 1cbd c626 38bd abcd 6dbd d014 a2bd
000000d0: 7dbc cbbd c152 a4bd eaa6 95bd b8dc 533d
000000e0: a751 eabb 3a3b 70bd ddfb acbd a325 3abd
000000f0: 1297 a9bd 7c27 d0bd 3df6 edbd 9e13 d5bc
00000100: 86bb a2bd 7081 4cbd 5802 eebd b94e 6dbd
00000110: 41af dbbd b697 a0bd aa7b d3bc 380b 54bd
00000120: ab83 46bd c5ff a2bd d84e 24bd 03a4 b7bd
00000130: 9828 84bd acc1 58bd 8c68 54bd 284c ddbd
00000140: 5638 31bc 8bd5 dcbc f300 12bd 988f 87bd
00000150: 9e41 abbb de4a c6bd aa2a 89bd 5a7c bebd
00000160: 7cb6 55bb 3f6c c8bd 5fe5 1bbd 29bd 94bd
00000170: 31b6 a5bd e227 bbbc 95e1 35bd 546b e7bd
00000180: ada4 44bd 6734 4dbd 661e 90bb d437 b4bd
00000190: a469 cabd e50e a9bc d297 8bbd 7d2c 25bd
000001a0: 1d4e 73bd 0bd1 04bc 67d5 30bb a4da 51bd
000001b0: 3e8a 10bc 485c 95bc 4508 d7bd f3b1 12bd
000001c0: 2b04 4bbd bc2f cebd 16e8 b9bc e84b 49bd
000001d0: 59b9 b4bd ca5d 96bc c2f3 61bd 4958 39bd
000001e0: 287a 57bc 7098 81bd 8be1 cdbd aba9 70bd
000001f0: 45c1 a1bd 90f1 65bd 8c85 983c 9498 acbb
00000200: e1e4 90bd 7e13 bdbd a0c4 74bd 0c7c eebd
00000210: 221b bdbc 39ee aabd 4c29 32bc 1add 7bbc
00000220: 3188 e8bd 0fed 5abd 8154 9fbd 08fa 7bbc
00000230: d83b ecbd b4de 5bbd 90ed 84bd c607 20bd
00000240: 0519 8cbc cb06 ebbc 86ed 18bd b62a 2bbc
00000250: 6275 bfbd 8f13 adbd 7f34 59bd 6ed0 acbb
00000260: dfb7 24bd 4bdd 3abc cd5b 55bd 42cb 19bd
00000270: 4848 acbd 60cd 14bd df63 b6bd bc7a b8bd
00000280: 95a7 e9bd 2b13 a6bd 5ed7 9abd f3e3 ddbc
00000290: 4af3 b2bd 84e1 ebbd 9800 c63c e6ef e9bc
000002a0: 0312 b3bd 51fb 84bd 18ff eabb dbc8 80bd
000002b0: 65ef bbbd 8754 d1bd f2f0 373d adb3 cabd
000002c0: 81dc bbbd 352b 1bbb 50db 4bbc 9c62 90bc
000002d0: 5bbc 97bd c164 33bb c97b 8ebd 78fa 01bc
000002e0: 1944 2abd 1610 0bbd ebc2 aabd ea63 28bd
000002f0: 8bd0 83bc caee 9ebd fe9a a5bd a5bd b7bc
00000300: 2008 40bd 0b37 33bd 3eae 31bd f249 26bd
00000310: 6aa0 e13d 4f63 1fbd 9110 98bd 707a babb
00000320: 6c2e 42bd d285 93bc ad00 e7bd aa4f 48bb
00000330: 7f95 aabd 8369 a5bc b681 88bd 9844 bdbd
00000340: cbf0 71bc 9c82 2dbc b011 e5bd c70a a8bd
00000350: eb67 c5bd 6533 1cbd 073c a4bd 6227 2bbd
00000360: 9459 0ebd 1584 bbbd 288e 21bd 9980 d8bb
00000370: b585 dabd da03 38bc fadb b9bd b9a4 ecbd
00000380: 2e06 a9bc c954 38bc d3c8 bebd dada 6bbc
00000390: d609 cabd 2925 34bb 002e a5bd 0607 67bd
000003a0: d662 3abd a8d2 a9bc 69e4 7ebc ee11 e1bd
000003b0: ff1d 59bd b403 33bd 16d2 28bc 2ff7 45bd
000003c0: 1b52 efbc 7f72 933d 5314 29bc f881 cebd
000003d0: 3139 98bd 70b7 eebc ce98 c7bd 036b e5bc
000003e0: d966 a8bd a3ec afbb 1aa0 bdbd f7c0 4cbc
000003f0: e0ed 0cbd adf2 acbd f2c8 41bd f604 6fbd

layers.6.bias f4 [200]
-0.053561036 0.09724988 0.06464738 0.07101439 -0.107750095 0.13019356 0.1242896 0.14849386
-0.06109175 0.16177686 -0.088333815 -0.13092412 0.098845 -0.06076741 0.091719605 0.015405023
-0.023888519 -0.05983396 0.10776641 -0.07256789 0.1307272 0.038565062 0.01627979 0.113189034
-0.013853801 -0.06904468 -0.04877446 -0.038504373 -0.08344214 0.16800827 -0.08253777 -0.10830363
-0.006690167 0.15767592 0.09723959 0.039762065 -0.09389401 0.09020954 -0.059785187 -0.04768958
0.032894745 -0.10659322 -0.00819355 0.0030435687 -0.014011979 0.02798141 -0.013572448 0.028843539
0.030515172 -0.047775142 0.02779019 -0.058881678 0.12076556 -0.050028034 0.11588595 -0.022355037
0.011064089 -0.077955626 -0.072288044 0.07450425 -0.048695076 0.04112418 0.05290027 0.03267449
-0.0288616 -0.11238367 0.041103207 -0.11418492 -0.13119273 0.07224309 -0.078599 0.17658111
0.06454622 0.06403889 -0.12618327 0.06308981 -0.097532205 -0.054322846 0.115211636 -0.013087912
0.11934992 0.14435647 0.015739258 0.10615555 0.1080641 -0.032243315 0.11151784 0.03576698
-0.08065747 -0.056993306 -0.05147896 -0.075664036 0.017307214 0.077217534 -0.11772751 -0.034914207
-0.06319448 0.0612658 0.037612602 -0.012982639 0.08835423 0.021078706 0.015263082 -0.016222669
-0.10311336 0.044714957 -0.030305488 -0.05893432 -0.03311278 0.066129915 -0.06855819 -0.009266999
-0.08005665 0.09339903 -0.037387833 -0.1660632 0.1167595 0.079462744 -0.051063575 -0.11772901
-0.109774455 0.0055167815 -0.110183254 0.062614545 -0.035862684 -0.0966466 0.123249926 0.09543005
0.04670437 -0.11313954 0.06596949 0.014927832 0.027994426 0.0403734 0.11124498 -0.060342614
-0.045826294 0.13682407 -0.026867623 -0.08167823 0.12505816 -0.022086166 0.041310225 0.0016081452
0.07553472 -0.17252952 0.119916484 -0.07049596 -0.12639062 0.13351983 -0.02849191 -0.016619844
0.057592154 -0.2115765 0.048358545 0.161742 -0.025646634 -0.18736023 0.18605378 -0.09737977
0.019498987 -0.012017068 0.036308363 0.015564473 0.031783015 -0.06649163 0.06831826 -0.0698226
0.037541017 -0.022535121 -0.029530127 0.01692748 -0.09829028 -0.09829518 -0.058912266 0.13473126
-0.026857479 0.018060228 -0.025028555 -0.097683094 -0.07152338 0.011155815 -0.088166125 0.042190015
-0.029314227 -0.04004603 0.101905495 -0.12294585 0.006554571 -0.0066353185 -0.027431216 0.011415253
-0.10502853 0.08308221 0.07048419 -0.0518966 -0.09098861 0.11198841 -0.07614092 0.06539427
00000000: d162 5bbd f22a c73d d865 843d fe6f 913d
00000010: 15ac dcbd 7651 053e 8c8b fe3d c60e 183e
00000020: 583b 7abd d5a8 253e 5ce8 b4bd f910 06be
00000030: 3f6f ca3d 3fe7 78bd 7dd7 bb3d 5965 7c3c
00000040: dbb1 c3bc 7414 75bd a3b4 dc3d 799e 94bd
00000050: 5add 053e 66f6 1d3d 325d 853c a7cf e73d
00000060: 0efb 62bc 4c67 8dbd bac7 47bd c3b6 1dbd
00000070: b6e3 aabd 5c0a 2c3e 9009 a9bd 4bce ddbd
00000080: 3039 dbbb cc75 213e 8d25 c73d 8cdd 223d
00000090: 814b c0bd c8bf b83d 50e1 74bd 2656 43bd
000000a0: a4bc 063d 8c4d dabd 3d3e 06bc 9c76 473b
000000b0: 8092 65bc 4539 e53c f95e 5ebc 4949 ec3c
000000c0: f4fa f93c deaf 43bd 41a8 e33c ea2d 71bd
000000d0: ef53 f73d 32ea 4cbd 9d55 ed3d e921 b7bc
000000e0: 2746 353c 33a7 9fbd c10b 94bd af95 983d
000000f0: 7d74 47bd d471 283d f4ad 583d b0d5 053d
00000100: 2a6f ecbc 6929 e6bd d65b 283d c9d9 e9bd
00000110: 6357 06be 2ff4 933d 83f8 a0bd aed1 343e
00000120: cf30 843d d226 833d 3036 01be 3b35 813d
00000130: f7be c7bd a281 5ebd 14f4 eb3d af6e 56bc
00000140: bb6d f43d 2fd2 133e 9eef 803c 1568 d93d
00000150: b650 dd3d 9111 04bd 7763 e43d 6680 123d
00000160: be2f a5bd d071 69bd 9adb 52bd bff5 9abd
00000170: dcc7 8d3c 3a24 9e3d 1f1b f1bd 3302 0fbd
00000180: 1c6c 81bd d9f1 7a3d ac0f 1a3d 22b5 54bc
00000190: 10f3 b43d 40ad ac3c 0212 7a3c 67e5 84bc
000001a0: 192d d3bd 0827 373d 3743 f8bc 1d65 71bd
000001b0: 44a1 07bd 1f6f 873d 3c68 8cbd 9cd4 17bc
000001c0: bef4 a3bd fe47 bf3d fc23 19bd 790c 2abe
000001d0: 9b1f ef3d 5dbd a23d 0a28 51bd e81b f1bd
000001e0: 6ed1 e0bd 1ec6 b43b c2a7 e1bd 0e3c 803d
000001f0: c0e4 12bd a7ee c5bd 756a fc3d d470 c33d
00000200: 154d 3f3d b4b5 e7bd 031b 873d de93 743c
00000210: 9154 e53c 945e 253d 68d4 e33d d129 77bd
00000220: 5ab4 3bbd 9c1b 0c3e 7d19 dcbc ea46 a7bd
00000230: 3f0f 003e 0cee b4bc e934 293d 66c8 d23a
00000240: f3b1 9a3d 94ab 30be c696 f53d 3060 90bd
00000250: 8b6c 01be 6cb9 083e de67 e9bc 5726 88bc
00000260: c0e5 6b3d 83a7 58be 9c13 463d b29f 253e
00000270: e418 d2bc 5cdb 3fbe e284 3e3e 0b6f c7bd
00000280: 57bc 9f3c 3de3 44bc 14b8 143d 2202 7f3c
00000290: e82e 023d c42c 88bd 72ea 8b3d 27ff 8ebd
000002a0: 9cc4 193d 939b b8bc 2ae9 f1bc 80ab 8a3c
000002b0: 6a4c c9bd fc4e c9bd fd4d 71bd fef6 093e
000002c0: 3704 dcbc 0bf3 933c af08 cdbc 130e c8bd
000002d0: da7a 92bd e1c6 363c 7190 b4bd 70cf 2c3d
000002e0: 6424 f0bc 4e07 24bd d4b3 d03d 09cb fbbd
000002f0: bac7 d63b 166d d9bb 6eb7 e0bc 0b07 3b3c
00000300: 3319 d7bd 0127 aa3d 045a 903d 8791 54bd
00000310: 3d58 babd 2e5a e53d c5ef 9bbd 6eed 853d

layers.9.weight f4 [100, 200]
-0.01644034 -0.11594133 -0.072004996 -0.018155191 0.07895221 0.022302851 -0.0047684833 0.11227725
-0.03274061 0.023843981 -0.043888494 -0.12605862 0.0052654967 0.0222603 0.0042600916 0.015000805
0.009174272 0.0043140203 0.0039667194 0.058864735 0.028518803 0.006056619 -0.03723371 -0.02338114
0.043894492 -0.03405967 -0.050511636 -0.045062806 0.05882346 -0.0591482 0.0010786876 0.1260066
-0.048692595 -0.051276077 -0.100161955 0.0050221826 -0.04589104 -0.06761596 -0.0447975 -0.0038228005
-0.047626663 -0.0049405396 -0.07308758 -0.1063573 0.00063336996 0.019466758 -0.0791507 -0.012357984
-0.006855454 -0.01889129 -0.07530154 -0.04467677 -0.083528 -0.045042455 -0.04121147 -0.034817282
-0.034998436 -0.09432746 -0.0030231252 -0.056845002 0.009068772 -0.060072906 0.027361616 -0.08254894
-0.10819254 0.06763955 -0.058612812 0.03320516 0.0744707 -0.009701378 -0.035521567 -0.018733095
0.0034231655 -0.11082665 -0.083446555 -0.001989001 -0.02409081 0.0021521002 -0.0017792904 0.008754633
-0.03596061 -0.018978542 -0.12549253 -0.027943186 -0.03610136 -0.017613817 -0.06758388 -0.062101807
-0.018588912 0.0022209212 -0.08550994 0.037962787 -0.08773217 -0.08036767 0.014693826 -0.040483825
-0.022177108 -0.008698036 0.008122727 -0.03439812 0.06279897 -0.05713846 0.07004682 -0.047242545
-0.027959932 0.053216636 -0.091108374 -0.03685561 -0.007827915 -0.003107354 -0.014163601 -0.035956964
0.069922514 -0.05355756 -0.009642776 0.054585062 0.012244485 -0.09425726 -0.027099751 -0.056661427
-0.010705739 -0.06182067 -0.012346558 -0.011145379 0.061721772 0.016833255 -0.10535006 -0.044407386
0.020854918 -0.023310807 -0.03690358 -0.055767704 0.01534248 0.009035774 -0.043007284 -0.03367111
-0.04329424 0.01594829 -0.043425713 0.049999762 -0.06373212 -0.06703594 -0.09696489 -0.051326748
-0.018934732 0.007266961 -0.024752403 -0.1139292 -0.04427545 -0.10712286 -0.02334562 -0.098775275
-0.08249905 0.056541182 -0.10093124 -0.089064024 -0.06461521 -0.024104577 -0.03369531 0.08160812
-0.044428334 -0.0072206035 0.015662067 -0.08531609 -0.08681457 0.0044911355 -0.09535209 0.041953206
-0.09300187 -0.00041128695 -0.11427767 -0.04490982 -0.08002002 -0.048874237 -0.02878794 0.035323687
-0.039515123 -0.010584049 -0.021949785 -0.041484572 -0.027182061 -0.034501627 -0.059495777 0.11167591
-0.023472875 -0.113570325 -0.10131343 -0.03103121 -0.086573385 -0.04283484 0.008864832 0.020367723
-0.032145336 -0.058816705 -0.10948598 -0.030139886 0.019666031 -0.031492583 -0.0072525647 -0.0080829635
-0.0094668735 0.14629093 -0.058955472 -0.14512819 -0.103294134 0.16536263 0.01797064 0.03578924
-0.050851848 -0.21197852 -0.003577382 -0.10159593 0.12662289 0.08309703 -0.004961991 -0.17124777
-0.047773104 0.09411279 -0.5163672 -0.067418806 -0.2011731 -0.078007214 -0.24859607 0.02017822
-0.028978541 -0.08911404 -0.09201252 0.029499 -0.09714411 0.09164505 -0.064407416 -0.028949544
-0.16765743 0.04128089 0.049236383 0.20783032 -0.07097838 0.26007417 -0.0038211532 -0.06985598
0.07967153 0.048829615 -0.024272453 -0.54384613 -0.29708207 -0.49184945 0.14868721 0.1685341
0.2219861 -0.07361543 -0.32596037 -0.20450449 0.121654116 -0.0335893 -0.006889039 -0.06761556
00000000: e4ad 86bc a672 edbd 5b77 93bd 32ba 94bc
00000010: b2b1 a13d 78b4 b63c f040 9cbb 9df1 e53d
00000020: 051b 06bd 7454 c33c 6cc4 33bd 8315 01be
00000030: 308a ac3b 3c5b b63c 3d98 8b3b f0c5 753c
00000040: b04f 163c a05c 8d3b 41fb 813b 261c 713d
00000050: 44a0 e93c 9a76 c63b 6082 18bd ce89 bfbc
00000060: b6ca 333d 2782 0bbd 4ae5 4ebd c793 38bd
00000070: def0 703d 6245 72bd c062 8d3a e007 013e
00000080: e371 47bd dd06 52bd b621 cdbd 1f91 a43b
00000090: 3ef8 3bbd 3d7a 8abd 957d 37bd f387 7abb
000000a0: 2d14 43bd 40e4 a1bb f1ae 95bd dbd1 d9bd
000000b0: bd08 263a c078 9f3c c319 a2bd 2479 4abc
000000c0: b7a3 e0bb e8c1 9abc b237 9abd fdfe 36bd
000000d0: ba10 abbd 707e 38bd 5ccd 28bd 919c 0ebd
000000e0: 855a 0fbd c12e c1bd a01f 46bb 4ed6 68bd
000000f0: 3095 143c 020f 76bd 7825 e03c 6b0f a9bd
00000100: 0d94 ddbd 9b86 8a3d fd13 70bd 2202 083d
00000110: 1884 983d 87f2 1ebc 107f 11bd 2676 99bc
00000120: 3057 603b 15f9 e2bd 07e6 aabd e659 02bb
00000130: 175a c5bc 400a 0d3b 1437 e9ba 986f 0f3c
00000140: 6f4b 13bd e378 9bbc 1d81 00be 1ce9 e4bc
00000150: 05df 13bd da4a 90bc 6b69 8abd 775e 7ebd
00000160: c647 98bc e08c 113b d61f afbd de7e 1b3d
00000170: edac b3bd ce97 a4bd 60be 703c 5ed2 25bd
00000180: c4ac b5bc 3582 0ebc 3015 053c 0be5 0cbd
00000190: bf9c 803d 050a 6abd b574 8f3d 6681 41bd
000001a0: 3a0c e5bc b0f9 593d 0797 babd e8f5 16bd
000001b0: a840 00bc c0a4 4bbb 730e 68bc 9c47 13bd
000001c0: 8933 8f3d 2c5f 5bbd bcfc 1dbc 9694 5f3d
000001d0: 189d 483c f309 c1bd 4c00 debc d015 68bd
000001e0: 2067 2fbc ac37 7dbd 3849 4abc 1c9b 36bc
000001f0: f8cf 7c3d e5e5 893c c6c1 d7bd 85e4 35bd
00000200: efd7 aa3c 4ef6 bebc 3528 17bd ad6c 64bd
00000210: 065f 7b3c c80a 143c 6828 30bd b8ea 09bd
00000220: 4d55 31bd fda5 823c 29df 31bd 8dcc 4c3d
00000230: fc85 82bd 244a 89bd 8795 c6bd ff3b 52bd
00000240: 031d 9bbc b01f ee3b 8dc5 cabc b653 e9bd
00000250: 2d5a 35bd 3b63 dbbd 503f bfbc b14a cabd
00000260: 43f5 a8bd ba97 673d 0ab5 cebd 3367 b6bd
00000270: fb54 84bd f676 c5bc 1804 0abd 2822 a73d
00000280: 7cfa 35bd d09a ecbb bc4d 803c 34ba aebd
00000290: d6cb b1bd 602a 933b f547 c3bd 20d7 2b3d
000002a0: c477 bebd 00a2 d7b9 690a eabd 5cf3 37bd
000002b0: 89e1 a3bd 5a30 48bd b0d4 ebbc 92af 103d
000002c0: 9cda 21bd b868 2dbc 09d0 b3bc baeb 29bd
000002d0: eaac debc 9451 0dbd d8b1 73bd 57b6 e43d
000002e0: 304a c0bc 8f97 e8bd 6a7d cfbd 2a35 febc
000002f0: 634d b1bd 9673 2fbd cd3d 113c 36da a63c
00000300: d4aa 03bd c9e9 70bd 2f3a e0bd ece7 f6bc
00000310: a81a a13c 5efe 00bd eca6 edbb 686e 04bc
00000320: f21a 1bbc 4acd 153e 4b7b 71bd 7c9c 14be
00000330: e08b d3bd d254 293e 2a37 933c bd97 123d
00000340: 074a 50bd e610 59be 8372 6abb 8711 d0bd
00000350: 6ea9 013e c72e aa3d 3398 a2bb 935b 2fbe
00000360: bbad 43bd 35be c03d a430 04bf df12 8abd
00000370: 5200 4ebe 3fc2 9fbd f88f 7ebe cb4c a53c
00000380: 6864 edbc 6c81 b6bd 0f71 bcbd e3a7 f13c
00000390: 7ef3 c6bd 66b0 bb3d 09e8 83bd 9827 edbc
000003a0: 64ae 2bbe 2716 293d 17ac 493d 79d1 543e
000003b0: 1d5d 91bd 7128 853e 506c 7abb a710 8fbd
000003c0: d42a a33d 9001 483d 06d7 c6bc 8039 0bbf
000003d0: 241b 98be b1d3 fbbe 7641 183e 3494 2c3e
000003e0: 5350 633e b0c3 96bd 47e4 a6be a069 51be
000003f0: cb25 f93d ef94 09bd 73bd e1bb 077a 8abd

layers.9.bias f4 [100]
-0.10566841 0.34651726 -0.07478983 0.054673694 -0.05871832 0.13274586 -0.15721306 -0.07862785
0.14397128 -0.12708794 0.3258982 0.25749013 -0.0790757 0.19122407 0.014288091 -0.071296
0.10137744 -0.006195657 -0.03261634 -0.1096256 0.23847704 -0.028337121 0.1177049 -0.02397133
0.009113428 0.13675499 -0.10806455 -0.06749263 0.21207662 0.40525517 -0.12614778 0.22399032
-0.09232265 0.01019833 -0.062621966 0.18694672 0.22377196 0.10239943 -0.036394183 0.021400264
0.06329021 -0.061106592 -0.09460817 0.19014257 0.19214934 -0.036319826 -0.10567704 -0.11345883
0.2405159 -0.12828487 0.30663726 0.02852698 0.10915734 0.13197125 0.08970565 0.19164217
-0.04897075 0.19421771 -0.09181249 0.12845236 -0.03657155 0.17873792 0.12160322 0.008459152
0.08160511 0.09102645 0.100318536 0.18494761 -0.04016395 0.27335703 -0.006447671 -0.1134713
0.24850512 -0.088684134 -0.0030164386 -0.002827771 -0.08624401 -0.032777574 0.39722058 -0.10762487
-0.11831444 0.24337056 -0.12711997 0.24630849 0.20312135 0.36645487 -0.07038945 -0.021788364
-0.018751314 0.1373336 -0.0965224 -0.03930583 -0.13108112 -0.078659564 0.0868578 0.3520207
-0.09829822 0.16573709 -0.121802896 -0.020409709
00000000: ae68 d8bd b66a b13e 692b 99bd 86f1 5f3d
00000010: 9f82 70bd 88ee 073e 76fc 20be a307 a1bd
00000020: 356d 133e 5723 02be 21dc a63e bfd5 833e
00000030: 71f2 a1bd 3ed0 433e 9918 6a3c a303 92bd
00000040: fa9e cf3d f004 cbbb b698 05bd 6383 e0bd
00000050: 5333 743e 4023 e8bc 440f f13d 865f c4bc
00000060: 7d50 153c 8009 0c3e f250 ddbd 9339 8abd
00000070: 9d2a 593e 9b7d cf3e e22c 01be b85d 653e
00000080: a813 bdbd e516 273c f23f 80bd f66e 3f3e
00000090: 7a24 653e cbb6 d13d 1112 15bd 9b4f af3c
000000a0: 4c9e 813d e84a 7abd eec1 c1bd bcb4 423e
000000b0: ccc2 443e 19c4 14bd 346d d8bd 1a5d e8bd
000000c0: cd49 763e 1c5d 03be 8fff 9c3e 6ab1 e93c
000000d0: e28d df3d 7923 073e 99b7 b73d d83d 443e
000000e0: 8e95 48bd 02e1 463e 3008 bcbd 0489 033e
000000f0: 0dcc 15bd 1307 373e 1c0b f93d 4198 0a3c
00000100: 9420 a73d 136c ba3d ce73 cd3d e862 3d3e
00000110: f482 24bd 74f5 8b3e fc46 d3bb a463 e8bd
00000120: 2078 7e3e 07a0 b5bd 71af 45bb 2052 39bb
00000130: b3a0 b0bd c741 06bd 7f60 cb3e 6e6a dcbd
00000140: d74e f2bd 2236 793e bd2b 02be 4b38 7c3e
00000150: 0bff 4f3e f99f bb3e 5828 90bd 837d b2bc
00000160: 5b9c 99bc 2ea1 0c3e 89ad c5bd 26ff 20bd
00000170: 213a 06be 4418 a1bd 81e2 b13d 0f3c b43e
00000180: 9450 c9bd fcb6 293e cc73 f9bd 4332 a7bc
